{
  "transform_params" : {
    "data" : {
      "bias_a" : 0,
      "bias_g" : -0.99609375,
      "bias_r" : -0.99609375,
      "bias_b" : -0.99609375,
      "center_mean" : 0,
      "is_network_bgr" : 0,
      "scale" : 0.0078125
    }
  },
  "properties" : {

  },
  "analyses" : {

  },
  "format_version" : 200,
  "storage" : "model.espresso.weights",
  "layers" : [
    {
      "pad_r" : 1,
      "fused_relu" : 0,
      "fused_tanh" : 0,
      "debug_info" : "conv_1_conv2d",
      "pad_fill_mode" : 0,
      "pad_b" : 1,
      "pad_l" : 1,
      "top" : "conv_1_batchnorm",
      "blob_weights" : 3,
      "K" : 3,
      "blob_biases" : 1,
      "stride_x" : 2,
      "name" : "conv_1_conv2d",
      "has_batch_norm" : 0,
      "type" : "convolution",
      "n_groups" : 1,
      "pad_t" : 1,
      "stride_y" : 2,
      "has_biases" : 1,
      "C" : 16,
      "bottom" : "data",
      "weights" : {

      },
      "Nx" : 3,
      "pad_mode" : 0,
      "pad_value" : 0,
      "Ny" : 3,
      "n_parallel" : 1
    },
    {
      "bottom" : "conv_1_batchnorm",
      "weights" : {
        "params_prelu" : 5
      },
      "mode" : 4,
      "debug_info" : "conv_1_relu",
      "top" : "conv_1_relu",
      "type" : "activation",
      "name" : "conv_1_relu"
    },
    {
      "pad_r" : 1,
      "fused_relu" : 0,
      "fused_tanh" : 0,
      "debug_info" : "conv_2_dw_conv2d",
      "pad_fill_mode" : 0,
      "pad_b" : 1,
      "pad_l" : 1,
      "top" : "conv_2_dw_batchnorm",
      "blob_weights" : 9,
      "K" : 16,
      "blob_biases" : 7,
      "name" : "conv_2_dw_conv2d",
      "has_batch_norm" : 0,
      "type" : "convolution",
      "n_groups" : 16,
      "pad_t" : 1,
      "has_biases" : 1,
      "C" : 16,
      "bottom" : "conv_1_relu",
      "weights" : {

      },
      "Nx" : 3,
      "pad_mode" : 0,
      "pad_value" : 0,
      "Ny" : 3,
      "n_parallel" : 1
    },
    {
      "bottom" : "conv_2_dw_batchnorm",
      "weights" : {
        "params_prelu" : 11
      },
      "mode" : 4,
      "debug_info" : "conv_2_dw_relu",
      "top" : "conv_2_dw_relu",
      "type" : "activation",
      "name" : "conv_2_dw_relu"
    },
    {
      "pad_r" : 0,
      "fused_relu" : 0,
      "fused_tanh" : 0,
      "debug_info" : "dconv_23_conv_sep_conv2d",
      "pad_fill_mode" : 0,
      "pad_b" : 0,
      "pad_l" : 0,
      "top" : "dconv_23_conv_sep_batchnorm",
      "blob_weights" : 15,
      "K" : 16,
      "blob_biases" : 13,
      "name" : "dconv_23_conv_sep_conv2d",
      "has_batch_norm" : 0,
      "type" : "convolution",
      "n_groups" : 1,
      "pad_t" : 0,
      "has_biases" : 1,
      "C" : 32,
      "bottom" : "conv_2_dw_relu",
      "weights" : {

      },
      "Nx" : 1,
      "pad_mode" : 0,
      "pad_value" : 0,
      "Ny" : 1,
      "n_parallel" : 1
    },
    {
      "bottom" : "dconv_23_conv_sep_batchnorm",
      "weights" : {
        "params_prelu" : 17
      },
      "mode" : 4,
      "debug_info" : "dconv_23_conv_sep_relu",
      "top" : "dconv_23_conv_sep_relu",
      "type" : "activation",
      "name" : "dconv_23_conv_sep_relu"
    },
    {
      "pad_r" : 1,
      "fused_relu" : 0,
      "fused_tanh" : 0,
      "debug_info" : "dconv_23_conv_dw_conv2d",
      "pad_fill_mode" : 0,
      "pad_b" : 1,
      "pad_l" : 1,
      "top" : "dconv_23_conv_dw_batchnorm",
      "blob_weights" : 21,
      "K" : 32,
      "blob_biases" : 19,
      "stride_x" : 2,
      "name" : "dconv_23_conv_dw_conv2d",
      "has_batch_norm" : 0,
      "type" : "convolution",
      "n_groups" : 32,
      "pad_t" : 1,
      "stride_y" : 2,
      "has_biases" : 1,
      "C" : 32,
      "bottom" : "dconv_23_conv_sep_relu",
      "weights" : {

      },
      "Nx" : 3,
      "pad_mode" : 0,
      "pad_value" : 0,
      "Ny" : 3,
      "n_parallel" : 1
    },
    {
      "bottom" : "dconv_23_conv_dw_batchnorm",
      "weights" : {
        "params_prelu" : 23
      },
      "mode" : 4,
      "debug_info" : "dconv_23_conv_dw_relu",
      "top" : "dconv_23_conv_dw_relu",
      "type" : "activation",
      "name" : "dconv_23_conv_dw_relu"
    },
    {
      "pad_r" : 0,
      "fused_relu" : 0,
      "fused_tanh" : 0,
      "debug_info" : "dconv_23_conv_proj_conv2d",
      "pad_fill_mode" : 0,
      "pad_b" : 0,
      "pad_l" : 0,
      "top" : "dconv_23_conv_proj_batchnorm",
      "blob_weights" : 27,
      "K" : 32,
      "blob_biases" : 25,
      "name" : "dconv_23_conv_proj_conv2d",
      "has_batch_norm" : 0,
      "type" : "convolution",
      "n_groups" : 1,
      "pad_t" : 0,
      "has_biases" : 1,
      "C" : 16,
      "bottom" : "dconv_23_conv_dw_relu",
      "weights" : {

      },
      "Nx" : 1,
      "pad_mode" : 0,
      "pad_value" : 0,
      "Ny" : 1,
      "n_parallel" : 1
    },
    {
      "pad_r" : 0,
      "fused_relu" : 0,
      "fused_tanh" : 0,
      "debug_info" : "res_3_block0_conv_sep_conv2d",
      "pad_fill_mode" : 0,
      "pad_b" : 0,
      "pad_l" : 0,
      "top" : "res_3_block0_conv_sep_batchnorm",
      "blob_weights" : 31,
      "K" : 16,
      "blob_biases" : 29,
      "name" : "res_3_block0_conv_sep_conv2d",
      "has_batch_norm" : 0,
      "type" : "convolution",
      "n_groups" : 1,
      "pad_t" : 0,
      "has_biases" : 1,
      "C" : 32,
      "bottom" : "dconv_23_conv_proj_batchnorm",
      "weights" : {

      },
      "Nx" : 1,
      "pad_mode" : 0,
      "pad_value" : 0,
      "Ny" : 1,
      "n_parallel" : 1
    },
    {
      "bottom" : "res_3_block0_conv_sep_batchnorm",
      "weights" : {
        "params_prelu" : 33
      },
      "mode" : 4,
      "debug_info" : "res_3_block0_conv_sep_relu",
      "top" : "res_3_block0_conv_sep_relu",
      "type" : "activation",
      "name" : "res_3_block0_conv_sep_relu"
    },
    {
      "pad_r" : 1,
      "fused_relu" : 0,
      "fused_tanh" : 0,
      "debug_info" : "res_3_block0_conv_dw_conv2d",
      "pad_fill_mode" : 0,
      "pad_b" : 1,
      "pad_l" : 1,
      "top" : "res_3_block0_conv_dw_batchnorm",
      "blob_weights" : 37,
      "K" : 32,
      "blob_biases" : 35,
      "name" : "res_3_block0_conv_dw_conv2d",
      "has_batch_norm" : 0,
      "type" : "convolution",
      "n_groups" : 32,
      "pad_t" : 1,
      "has_biases" : 1,
      "C" : 32,
      "bottom" : "res_3_block0_conv_sep_relu",
      "weights" : {

      },
      "Nx" : 3,
      "pad_mode" : 0,
      "pad_value" : 0,
      "Ny" : 3,
      "n_parallel" : 1
    },
    {
      "bottom" : "res_3_block0_conv_dw_batchnorm",
      "weights" : {
        "params_prelu" : 39
      },
      "mode" : 4,
      "debug_info" : "res_3_block0_conv_dw_relu",
      "top" : "res_3_block0_conv_dw_relu",
      "type" : "activation",
      "name" : "res_3_block0_conv_dw_relu"
    },
    {
      "pad_r" : 0,
      "fused_relu" : 0,
      "fused_tanh" : 0,
      "debug_info" : "res_3_block0_conv_proj_conv2d",
      "pad_fill_mode" : 0,
      "pad_b" : 0,
      "pad_l" : 0,
      "top" : "res_3_block0_conv_proj_batchnorm",
      "blob_weights" : 43,
      "K" : 32,
      "blob_biases" : 41,
      "name" : "res_3_block0_conv_proj_conv2d",
      "has_batch_norm" : 0,
      "type" : "convolution",
      "n_groups" : 1,
      "pad_t" : 0,
      "has_biases" : 1,
      "C" : 16,
      "bottom" : "res_3_block0_conv_dw_relu",
      "weights" : {

      },
      "Nx" : 1,
      "pad_mode" : 0,
      "pad_value" : 0,
      "Ny" : 1,
      "n_parallel" : 1
    },
    {
      "bottom" : "res_3_block0_conv_proj_batchnorm,dconv_23_conv_proj_batchnorm",
      "alpha" : 1,
      "operation" : 0,
      "weights" : {

      },
      "fused_relu" : 0,
      "debug_info" : "_plus0",
      "top" : "_plus0",
      "type" : "elementwise",
      "name" : "_plus0",
      "beta" : 0
    },
    {
      "pad_r" : 0,
      "fused_relu" : 0,
      "fused_tanh" : 0,
      "debug_info" : "res_3_block1_conv_sep_conv2d",
      "pad_fill_mode" : 0,
      "pad_b" : 0,
      "pad_l" : 0,
      "top" : "res_3_block1_conv_sep_batchnorm",
      "blob_weights" : 47,
      "K" : 16,
      "blob_biases" : 45,
      "name" : "res_3_block1_conv_sep_conv2d",
      "has_batch_norm" : 0,
      "type" : "convolution",
      "n_groups" : 1,
      "pad_t" : 0,
      "has_biases" : 1,
      "C" : 32,
      "bottom" : "_plus0",
      "weights" : {

      },
      "Nx" : 1,
      "pad_mode" : 0,
      "pad_value" : 0,
      "Ny" : 1,
      "n_parallel" : 1
    },
    {
      "bottom" : "res_3_block1_conv_sep_batchnorm",
      "weights" : {
        "params_prelu" : 49
      },
      "mode" : 4,
      "debug_info" : "res_3_block1_conv_sep_relu",
      "top" : "res_3_block1_conv_sep_relu",
      "type" : "activation",
      "name" : "res_3_block1_conv_sep_relu"
    },
    {
      "pad_r" : 1,
      "fused_relu" : 0,
      "fused_tanh" : 0,
      "debug_info" : "res_3_block1_conv_dw_conv2d",
      "pad_fill_mode" : 0,
      "pad_b" : 1,
      "pad_l" : 1,
      "top" : "res_3_block1_conv_dw_batchnorm",
      "blob_weights" : 53,
      "K" : 32,
      "blob_biases" : 51,
      "name" : "res_3_block1_conv_dw_conv2d",
      "has_batch_norm" : 0,
      "type" : "convolution",
      "n_groups" : 32,
      "pad_t" : 1,
      "has_biases" : 1,
      "C" : 32,
      "bottom" : "res_3_block1_conv_sep_relu",
      "weights" : {

      },
      "Nx" : 3,
      "pad_mode" : 0,
      "pad_value" : 0,
      "Ny" : 3,
      "n_parallel" : 1
    },
    {
      "bottom" : "res_3_block1_conv_dw_batchnorm",
      "weights" : {
        "params_prelu" : 55
      },
      "mode" : 4,
      "debug_info" : "res_3_block1_conv_dw_relu",
      "top" : "res_3_block1_conv_dw_relu",
      "type" : "activation",
      "name" : "res_3_block1_conv_dw_relu"
    },
    {
      "pad_r" : 0,
      "fused_relu" : 0,
      "fused_tanh" : 0,
      "debug_info" : "res_3_block1_conv_proj_conv2d",
      "pad_fill_mode" : 0,
      "pad_b" : 0,
      "pad_l" : 0,
      "top" : "res_3_block1_conv_proj_batchnorm",
      "blob_weights" : 59,
      "K" : 32,
      "blob_biases" : 57,
      "name" : "res_3_block1_conv_proj_conv2d",
      "has_batch_norm" : 0,
      "type" : "convolution",
      "n_groups" : 1,
      "pad_t" : 0,
      "has_biases" : 1,
      "C" : 16,
      "bottom" : "res_3_block1_conv_dw_relu",
      "weights" : {

      },
      "Nx" : 1,
      "pad_mode" : 0,
      "pad_value" : 0,
      "Ny" : 1,
      "n_parallel" : 1
    },
    {
      "bottom" : "res_3_block1_conv_proj_batchnorm,_plus0",
      "alpha" : 1,
      "operation" : 0,
      "weights" : {

      },
      "fused_relu" : 0,
      "debug_info" : "_plus1",
      "top" : "_plus1",
      "type" : "elementwise",
      "name" : "_plus1",
      "beta" : 0
    },
    {
      "pad_r" : 0,
      "fused_relu" : 0,
      "fused_tanh" : 0,
      "debug_info" : "res_3_block2_conv_sep_conv2d",
      "pad_fill_mode" : 0,
      "pad_b" : 0,
      "pad_l" : 0,
      "top" : "res_3_block2_conv_sep_batchnorm",
      "blob_weights" : 63,
      "K" : 16,
      "blob_biases" : 61,
      "name" : "res_3_block2_conv_sep_conv2d",
      "has_batch_norm" : 0,
      "type" : "convolution",
      "n_groups" : 1,
      "pad_t" : 0,
      "has_biases" : 1,
      "C" : 32,
      "bottom" : "_plus1",
      "weights" : {

      },
      "Nx" : 1,
      "pad_mode" : 0,
      "pad_value" : 0,
      "Ny" : 1,
      "n_parallel" : 1
    },
    {
      "bottom" : "res_3_block2_conv_sep_batchnorm",
      "weights" : {
        "params_prelu" : 65
      },
      "mode" : 4,
      "debug_info" : "res_3_block2_conv_sep_relu",
      "top" : "res_3_block2_conv_sep_relu",
      "type" : "activation",
      "name" : "res_3_block2_conv_sep_relu"
    },
    {
      "pad_r" : 1,
      "fused_relu" : 0,
      "fused_tanh" : 0,
      "debug_info" : "res_3_block2_conv_dw_conv2d",
      "pad_fill_mode" : 0,
      "pad_b" : 1,
      "pad_l" : 1,
      "top" : "res_3_block2_conv_dw_batchnorm",
      "blob_weights" : 69,
      "K" : 32,
      "blob_biases" : 67,
      "name" : "res_3_block2_conv_dw_conv2d",
      "has_batch_norm" : 0,
      "type" : "convolution",
      "n_groups" : 32,
      "pad_t" : 1,
      "has_biases" : 1,
      "C" : 32,
      "bottom" : "res_3_block2_conv_sep_relu",
      "weights" : {

      },
      "Nx" : 3,
      "pad_mode" : 0,
      "pad_value" : 0,
      "Ny" : 3,
      "n_parallel" : 1
    },
    {
      "bottom" : "res_3_block2_conv_dw_batchnorm",
      "weights" : {
        "params_prelu" : 71
      },
      "mode" : 4,
      "debug_info" : "res_3_block2_conv_dw_relu",
      "top" : "res_3_block2_conv_dw_relu",
      "type" : "activation",
      "name" : "res_3_block2_conv_dw_relu"
    },
    {
      "pad_r" : 0,
      "fused_relu" : 0,
      "fused_tanh" : 0,
      "debug_info" : "res_3_block2_conv_proj_conv2d",
      "pad_fill_mode" : 0,
      "pad_b" : 0,
      "pad_l" : 0,
      "top" : "res_3_block2_conv_proj_batchnorm",
      "blob_weights" : 75,
      "K" : 32,
      "blob_biases" : 73,
      "name" : "res_3_block2_conv_proj_conv2d",
      "has_batch_norm" : 0,
      "type" : "convolution",
      "n_groups" : 1,
      "pad_t" : 0,
      "has_biases" : 1,
      "C" : 16,
      "bottom" : "res_3_block2_conv_dw_relu",
      "weights" : {

      },
      "Nx" : 1,
      "pad_mode" : 0,
      "pad_value" : 0,
      "Ny" : 1,
      "n_parallel" : 1
    },
    {
      "bottom" : "res_3_block2_conv_proj_batchnorm,_plus1",
      "alpha" : 1,
      "operation" : 0,
      "weights" : {

      },
      "fused_relu" : 0,
      "debug_info" : "_plus2",
      "top" : "_plus2",
      "type" : "elementwise",
      "name" : "_plus2",
      "beta" : 0
    },
    {
      "pad_r" : 0,
      "fused_relu" : 0,
      "fused_tanh" : 0,
      "debug_info" : "res_3_block3_conv_sep_conv2d",
      "pad_fill_mode" : 0,
      "pad_b" : 0,
      "pad_l" : 0,
      "top" : "res_3_block3_conv_sep_batchnorm",
      "blob_weights" : 79,
      "K" : 16,
      "blob_biases" : 77,
      "name" : "res_3_block3_conv_sep_conv2d",
      "has_batch_norm" : 0,
      "type" : "convolution",
      "n_groups" : 1,
      "pad_t" : 0,
      "has_biases" : 1,
      "C" : 32,
      "bottom" : "_plus2",
      "weights" : {

      },
      "Nx" : 1,
      "pad_mode" : 0,
      "pad_value" : 0,
      "Ny" : 1,
      "n_parallel" : 1
    },
    {
      "bottom" : "res_3_block3_conv_sep_batchnorm",
      "weights" : {
        "params_prelu" : 81
      },
      "mode" : 4,
      "debug_info" : "res_3_block3_conv_sep_relu",
      "top" : "res_3_block3_conv_sep_relu",
      "type" : "activation",
      "name" : "res_3_block3_conv_sep_relu"
    },
    {
      "pad_r" : 1,
      "fused_relu" : 0,
      "fused_tanh" : 0,
      "debug_info" : "res_3_block3_conv_dw_conv2d",
      "pad_fill_mode" : 0,
      "pad_b" : 1,
      "pad_l" : 1,
      "top" : "res_3_block3_conv_dw_batchnorm",
      "blob_weights" : 85,
      "K" : 32,
      "blob_biases" : 83,
      "name" : "res_3_block3_conv_dw_conv2d",
      "has_batch_norm" : 0,
      "type" : "convolution",
      "n_groups" : 32,
      "pad_t" : 1,
      "has_biases" : 1,
      "C" : 32,
      "bottom" : "res_3_block3_conv_sep_relu",
      "weights" : {

      },
      "Nx" : 3,
      "pad_mode" : 0,
      "pad_value" : 0,
      "Ny" : 3,
      "n_parallel" : 1
    },
    {
      "bottom" : "res_3_block3_conv_dw_batchnorm",
      "weights" : {
        "params_prelu" : 87
      },
      "mode" : 4,
      "debug_info" : "res_3_block3_conv_dw_relu",
      "top" : "res_3_block3_conv_dw_relu",
      "type" : "activation",
      "name" : "res_3_block3_conv_dw_relu"
    },
    {
      "pad_r" : 0,
      "fused_relu" : 0,
      "fused_tanh" : 0,
      "debug_info" : "res_3_block3_conv_proj_conv2d",
      "pad_fill_mode" : 0,
      "pad_b" : 0,
      "pad_l" : 0,
      "top" : "res_3_block3_conv_proj_batchnorm",
      "blob_weights" : 91,
      "K" : 32,
      "blob_biases" : 89,
      "name" : "res_3_block3_conv_proj_conv2d",
      "has_batch_norm" : 0,
      "type" : "convolution",
      "n_groups" : 1,
      "pad_t" : 0,
      "has_biases" : 1,
      "C" : 16,
      "bottom" : "res_3_block3_conv_dw_relu",
      "weights" : {

      },
      "Nx" : 1,
      "pad_mode" : 0,
      "pad_value" : 0,
      "Ny" : 1,
      "n_parallel" : 1
    },
    {
      "bottom" : "res_3_block3_conv_proj_batchnorm,_plus2",
      "alpha" : 1,
      "operation" : 0,
      "weights" : {

      },
      "fused_relu" : 0,
      "debug_info" : "_plus3",
      "top" : "_plus3",
      "type" : "elementwise",
      "name" : "_plus3",
      "beta" : 0
    },
    {
      "pad_r" : 0,
      "fused_relu" : 0,
      "fused_tanh" : 0,
      "debug_info" : "dconv_34_conv_sep_conv2d",
      "pad_fill_mode" : 0,
      "pad_b" : 0,
      "pad_l" : 0,
      "top" : "dconv_34_conv_sep_batchnorm",
      "blob_weights" : 95,
      "K" : 16,
      "blob_biases" : 93,
      "name" : "dconv_34_conv_sep_conv2d",
      "has_batch_norm" : 0,
      "type" : "convolution",
      "n_groups" : 1,
      "pad_t" : 0,
      "has_biases" : 1,
      "C" : 64,
      "bottom" : "_plus3",
      "weights" : {

      },
      "Nx" : 1,
      "pad_mode" : 0,
      "pad_value" : 0,
      "Ny" : 1,
      "n_parallel" : 1
    },
    {
      "bottom" : "dconv_34_conv_sep_batchnorm",
      "weights" : {
        "params_prelu" : 97
      },
      "mode" : 4,
      "debug_info" : "dconv_34_conv_sep_relu",
      "top" : "dconv_34_conv_sep_relu",
      "type" : "activation",
      "name" : "dconv_34_conv_sep_relu"
    },
    {
      "pad_r" : 1,
      "fused_relu" : 0,
      "fused_tanh" : 0,
      "debug_info" : "dconv_34_conv_dw_conv2d",
      "pad_fill_mode" : 0,
      "pad_b" : 1,
      "pad_l" : 1,
      "top" : "dconv_34_conv_dw_batchnorm",
      "blob_weights" : 101,
      "K" : 64,
      "blob_biases" : 99,
      "stride_x" : 2,
      "name" : "dconv_34_conv_dw_conv2d",
      "has_batch_norm" : 0,
      "type" : "convolution",
      "n_groups" : 64,
      "pad_t" : 1,
      "stride_y" : 2,
      "has_biases" : 1,
      "C" : 64,
      "bottom" : "dconv_34_conv_sep_relu",
      "weights" : {

      },
      "Nx" : 3,
      "pad_mode" : 0,
      "pad_value" : 0,
      "Ny" : 3,
      "n_parallel" : 1
    },
    {
      "bottom" : "dconv_34_conv_dw_batchnorm",
      "weights" : {
        "params_prelu" : 103
      },
      "mode" : 4,
      "debug_info" : "dconv_34_conv_dw_relu",
      "top" : "dconv_34_conv_dw_relu",
      "type" : "activation",
      "name" : "dconv_34_conv_dw_relu"
    },
    {
      "pad_r" : 0,
      "fused_relu" : 0,
      "fused_tanh" : 0,
      "debug_info" : "dconv_34_conv_proj_conv2d",
      "pad_fill_mode" : 0,
      "pad_b" : 0,
      "pad_l" : 0,
      "top" : "dconv_34_conv_proj_batchnorm",
      "blob_weights" : 107,
      "K" : 64,
      "blob_biases" : 105,
      "name" : "dconv_34_conv_proj_conv2d",
      "has_batch_norm" : 0,
      "type" : "convolution",
      "n_groups" : 1,
      "pad_t" : 0,
      "has_biases" : 1,
      "C" : 32,
      "bottom" : "dconv_34_conv_dw_relu",
      "weights" : {

      },
      "Nx" : 1,
      "pad_mode" : 0,
      "pad_value" : 0,
      "Ny" : 1,
      "n_parallel" : 1
    },
    {
      "pad_r" : 0,
      "fused_relu" : 0,
      "fused_tanh" : 0,
      "debug_info" : "res_4_block0_conv_sep_conv2d",
      "pad_fill_mode" : 0,
      "pad_b" : 0,
      "pad_l" : 0,
      "top" : "res_4_block0_conv_sep_batchnorm",
      "blob_weights" : 111,
      "K" : 32,
      "blob_biases" : 109,
      "name" : "res_4_block0_conv_sep_conv2d",
      "has_batch_norm" : 0,
      "type" : "convolution",
      "n_groups" : 1,
      "pad_t" : 0,
      "has_biases" : 1,
      "C" : 64,
      "bottom" : "dconv_34_conv_proj_batchnorm",
      "weights" : {

      },
      "Nx" : 1,
      "pad_mode" : 0,
      "pad_value" : 0,
      "Ny" : 1,
      "n_parallel" : 1
    },
    {
      "bottom" : "res_4_block0_conv_sep_batchnorm",
      "weights" : {
        "params_prelu" : 113
      },
      "mode" : 4,
      "debug_info" : "res_4_block0_conv_sep_relu",
      "top" : "res_4_block0_conv_sep_relu",
      "type" : "activation",
      "name" : "res_4_block0_conv_sep_relu"
    },
    {
      "pad_r" : 1,
      "fused_relu" : 0,
      "fused_tanh" : 0,
      "debug_info" : "res_4_block0_conv_dw_conv2d",
      "pad_fill_mode" : 0,
      "pad_b" : 1,
      "pad_l" : 1,
      "top" : "res_4_block0_conv_dw_batchnorm",
      "blob_weights" : 117,
      "K" : 64,
      "blob_biases" : 115,
      "name" : "res_4_block0_conv_dw_conv2d",
      "has_batch_norm" : 0,
      "type" : "convolution",
      "n_groups" : 64,
      "pad_t" : 1,
      "has_biases" : 1,
      "C" : 64,
      "bottom" : "res_4_block0_conv_sep_relu",
      "weights" : {

      },
      "Nx" : 3,
      "pad_mode" : 0,
      "pad_value" : 0,
      "Ny" : 3,
      "n_parallel" : 1
    },
    {
      "bottom" : "res_4_block0_conv_dw_batchnorm",
      "weights" : {
        "params_prelu" : 119
      },
      "mode" : 4,
      "debug_info" : "res_4_block0_conv_dw_relu",
      "top" : "res_4_block0_conv_dw_relu",
      "type" : "activation",
      "name" : "res_4_block0_conv_dw_relu"
    },
    {
      "pad_r" : 0,
      "fused_relu" : 0,
      "fused_tanh" : 0,
      "debug_info" : "res_4_block0_conv_proj_conv2d",
      "pad_fill_mode" : 0,
      "pad_b" : 0,
      "pad_l" : 0,
      "top" : "res_4_block0_conv_proj_batchnorm",
      "blob_weights" : 123,
      "K" : 64,
      "blob_biases" : 121,
      "name" : "res_4_block0_conv_proj_conv2d",
      "has_batch_norm" : 0,
      "type" : "convolution",
      "n_groups" : 1,
      "pad_t" : 0,
      "has_biases" : 1,
      "C" : 32,
      "bottom" : "res_4_block0_conv_dw_relu",
      "weights" : {

      },
      "Nx" : 1,
      "pad_mode" : 0,
      "pad_value" : 0,
      "Ny" : 1,
      "n_parallel" : 1
    },
    {
      "bottom" : "res_4_block0_conv_proj_batchnorm,dconv_34_conv_proj_batchnorm",
      "alpha" : 1,
      "operation" : 0,
      "weights" : {

      },
      "fused_relu" : 0,
      "debug_info" : "_plus4",
      "top" : "_plus4",
      "type" : "elementwise",
      "name" : "_plus4",
      "beta" : 0
    },
    {
      "pad_r" : 0,
      "fused_relu" : 0,
      "fused_tanh" : 0,
      "debug_info" : "res_4_block1_conv_sep_conv2d",
      "pad_fill_mode" : 0,
      "pad_b" : 0,
      "pad_l" : 0,
      "top" : "res_4_block1_conv_sep_batchnorm",
      "blob_weights" : 127,
      "K" : 32,
      "blob_biases" : 125,
      "name" : "res_4_block1_conv_sep_conv2d",
      "has_batch_norm" : 0,
      "type" : "convolution",
      "n_groups" : 1,
      "pad_t" : 0,
      "has_biases" : 1,
      "C" : 64,
      "bottom" : "_plus4",
      "weights" : {

      },
      "Nx" : 1,
      "pad_mode" : 0,
      "pad_value" : 0,
      "Ny" : 1,
      "n_parallel" : 1
    },
    {
      "bottom" : "res_4_block1_conv_sep_batchnorm",
      "weights" : {
        "params_prelu" : 129
      },
      "mode" : 4,
      "debug_info" : "res_4_block1_conv_sep_relu",
      "top" : "res_4_block1_conv_sep_relu",
      "type" : "activation",
      "name" : "res_4_block1_conv_sep_relu"
    },
    {
      "pad_r" : 1,
      "fused_relu" : 0,
      "fused_tanh" : 0,
      "debug_info" : "res_4_block1_conv_dw_conv2d",
      "pad_fill_mode" : 0,
      "pad_b" : 1,
      "pad_l" : 1,
      "top" : "res_4_block1_conv_dw_batchnorm",
      "blob_weights" : 133,
      "K" : 64,
      "blob_biases" : 131,
      "name" : "res_4_block1_conv_dw_conv2d",
      "has_batch_norm" : 0,
      "type" : "convolution",
      "n_groups" : 64,
      "pad_t" : 1,
      "has_biases" : 1,
      "C" : 64,
      "bottom" : "res_4_block1_conv_sep_relu",
      "weights" : {

      },
      "Nx" : 3,
      "pad_mode" : 0,
      "pad_value" : 0,
      "Ny" : 3,
      "n_parallel" : 1
    },
    {
      "bottom" : "res_4_block1_conv_dw_batchnorm",
      "weights" : {
        "params_prelu" : 135
      },
      "mode" : 4,
      "debug_info" : "res_4_block1_conv_dw_relu",
      "top" : "res_4_block1_conv_dw_relu",
      "type" : "activation",
      "name" : "res_4_block1_conv_dw_relu"
    },
    {
      "pad_r" : 0,
      "fused_relu" : 0,
      "fused_tanh" : 0,
      "debug_info" : "res_4_block1_conv_proj_conv2d",
      "pad_fill_mode" : 0,
      "pad_b" : 0,
      "pad_l" : 0,
      "top" : "res_4_block1_conv_proj_batchnorm",
      "blob_weights" : 139,
      "K" : 64,
      "blob_biases" : 137,
      "name" : "res_4_block1_conv_proj_conv2d",
      "has_batch_norm" : 0,
      "type" : "convolution",
      "n_groups" : 1,
      "pad_t" : 0,
      "has_biases" : 1,
      "C" : 32,
      "bottom" : "res_4_block1_conv_dw_relu",
      "weights" : {

      },
      "Nx" : 1,
      "pad_mode" : 0,
      "pad_value" : 0,
      "Ny" : 1,
      "n_parallel" : 1
    },
    {
      "bottom" : "res_4_block1_conv_proj_batchnorm,_plus4",
      "alpha" : 1,
      "operation" : 0,
      "weights" : {

      },
      "fused_relu" : 0,
      "debug_info" : "_plus5",
      "top" : "_plus5",
      "type" : "elementwise",
      "name" : "_plus5",
      "beta" : 0
    },
    {
      "pad_r" : 0,
      "fused_relu" : 0,
      "fused_tanh" : 0,
      "debug_info" : "res_4_block2_conv_sep_conv2d",
      "pad_fill_mode" : 0,
      "pad_b" : 0,
      "pad_l" : 0,
      "top" : "res_4_block2_conv_sep_batchnorm",
      "blob_weights" : 143,
      "K" : 32,
      "blob_biases" : 141,
      "name" : "res_4_block2_conv_sep_conv2d",
      "has_batch_norm" : 0,
      "type" : "convolution",
      "n_groups" : 1,
      "pad_t" : 0,
      "has_biases" : 1,
      "C" : 64,
      "bottom" : "_plus5",
      "weights" : {

      },
      "Nx" : 1,
      "pad_mode" : 0,
      "pad_value" : 0,
      "Ny" : 1,
      "n_parallel" : 1
    },
    {
      "bottom" : "res_4_block2_conv_sep_batchnorm",
      "weights" : {
        "params_prelu" : 145
      },
      "mode" : 4,
      "debug_info" : "res_4_block2_conv_sep_relu",
      "top" : "res_4_block2_conv_sep_relu",
      "type" : "activation",
      "name" : "res_4_block2_conv_sep_relu"
    },
    {
      "pad_r" : 1,
      "fused_relu" : 0,
      "fused_tanh" : 0,
      "debug_info" : "res_4_block2_conv_dw_conv2d",
      "pad_fill_mode" : 0,
      "pad_b" : 1,
      "pad_l" : 1,
      "top" : "res_4_block2_conv_dw_batchnorm",
      "blob_weights" : 149,
      "K" : 64,
      "blob_biases" : 147,
      "name" : "res_4_block2_conv_dw_conv2d",
      "has_batch_norm" : 0,
      "type" : "convolution",
      "n_groups" : 64,
      "pad_t" : 1,
      "has_biases" : 1,
      "C" : 64,
      "bottom" : "res_4_block2_conv_sep_relu",
      "weights" : {

      },
      "Nx" : 3,
      "pad_mode" : 0,
      "pad_value" : 0,
      "Ny" : 3,
      "n_parallel" : 1
    },
    {
      "bottom" : "res_4_block2_conv_dw_batchnorm",
      "weights" : {
        "params_prelu" : 151
      },
      "mode" : 4,
      "debug_info" : "res_4_block2_conv_dw_relu",
      "top" : "res_4_block2_conv_dw_relu",
      "type" : "activation",
      "name" : "res_4_block2_conv_dw_relu"
    },
    {
      "pad_r" : 0,
      "fused_relu" : 0,
      "fused_tanh" : 0,
      "debug_info" : "res_4_block2_conv_proj_conv2d",
      "pad_fill_mode" : 0,
      "pad_b" : 0,
      "pad_l" : 0,
      "top" : "res_4_block2_conv_proj_batchnorm",
      "blob_weights" : 155,
      "K" : 64,
      "blob_biases" : 153,
      "name" : "res_4_block2_conv_proj_conv2d",
      "has_batch_norm" : 0,
      "type" : "convolution",
      "n_groups" : 1,
      "pad_t" : 0,
      "has_biases" : 1,
      "C" : 32,
      "bottom" : "res_4_block2_conv_dw_relu",
      "weights" : {

      },
      "Nx" : 1,
      "pad_mode" : 0,
      "pad_value" : 0,
      "Ny" : 1,
      "n_parallel" : 1
    },
    {
      "bottom" : "res_4_block2_conv_proj_batchnorm,_plus5",
      "alpha" : 1,
      "operation" : 0,
      "weights" : {

      },
      "fused_relu" : 0,
      "debug_info" : "_plus6",
      "top" : "_plus6",
      "type" : "elementwise",
      "name" : "_plus6",
      "beta" : 0
    },
    {
      "pad_r" : 0,
      "fused_relu" : 0,
      "fused_tanh" : 0,
      "debug_info" : "res_4_block3_conv_sep_conv2d",
      "pad_fill_mode" : 0,
      "pad_b" : 0,
      "pad_l" : 0,
      "top" : "res_4_block3_conv_sep_batchnorm",
      "blob_weights" : 159,
      "K" : 32,
      "blob_biases" : 157,
      "name" : "res_4_block3_conv_sep_conv2d",
      "has_batch_norm" : 0,
      "type" : "convolution",
      "n_groups" : 1,
      "pad_t" : 0,
      "has_biases" : 1,
      "C" : 64,
      "bottom" : "_plus6",
      "weights" : {

      },
      "Nx" : 1,
      "pad_mode" : 0,
      "pad_value" : 0,
      "Ny" : 1,
      "n_parallel" : 1
    },
    {
      "bottom" : "res_4_block3_conv_sep_batchnorm",
      "weights" : {
        "params_prelu" : 161
      },
      "mode" : 4,
      "debug_info" : "res_4_block3_conv_sep_relu",
      "top" : "res_4_block3_conv_sep_relu",
      "type" : "activation",
      "name" : "res_4_block3_conv_sep_relu"
    },
    {
      "pad_r" : 1,
      "fused_relu" : 0,
      "fused_tanh" : 0,
      "debug_info" : "res_4_block3_conv_dw_conv2d",
      "pad_fill_mode" : 0,
      "pad_b" : 1,
      "pad_l" : 1,
      "top" : "res_4_block3_conv_dw_batchnorm",
      "blob_weights" : 165,
      "K" : 64,
      "blob_biases" : 163,
      "name" : "res_4_block3_conv_dw_conv2d",
      "has_batch_norm" : 0,
      "type" : "convolution",
      "n_groups" : 64,
      "pad_t" : 1,
      "has_biases" : 1,
      "C" : 64,
      "bottom" : "res_4_block3_conv_sep_relu",
      "weights" : {

      },
      "Nx" : 3,
      "pad_mode" : 0,
      "pad_value" : 0,
      "Ny" : 3,
      "n_parallel" : 1
    },
    {
      "bottom" : "res_4_block3_conv_dw_batchnorm",
      "weights" : {
        "params_prelu" : 167
      },
      "mode" : 4,
      "debug_info" : "res_4_block3_conv_dw_relu",
      "top" : "res_4_block3_conv_dw_relu",
      "type" : "activation",
      "name" : "res_4_block3_conv_dw_relu"
    },
    {
      "pad_r" : 0,
      "fused_relu" : 0,
      "fused_tanh" : 0,
      "debug_info" : "res_4_block3_conv_proj_conv2d",
      "pad_fill_mode" : 0,
      "pad_b" : 0,
      "pad_l" : 0,
      "top" : "res_4_block3_conv_proj_batchnorm",
      "blob_weights" : 171,
      "K" : 64,
      "blob_biases" : 169,
      "name" : "res_4_block3_conv_proj_conv2d",
      "has_batch_norm" : 0,
      "type" : "convolution",
      "n_groups" : 1,
      "pad_t" : 0,
      "has_biases" : 1,
      "C" : 32,
      "bottom" : "res_4_block3_conv_dw_relu",
      "weights" : {

      },
      "Nx" : 1,
      "pad_mode" : 0,
      "pad_value" : 0,
      "Ny" : 1,
      "n_parallel" : 1
    },
    {
      "bottom" : "res_4_block3_conv_proj_batchnorm,_plus6",
      "alpha" : 1,
      "operation" : 0,
      "weights" : {

      },
      "fused_relu" : 0,
      "debug_info" : "_plus7",
      "top" : "_plus7",
      "type" : "elementwise",
      "name" : "_plus7",
      "beta" : 0
    },
    {
      "pad_r" : 0,
      "fused_relu" : 0,
      "fused_tanh" : 0,
      "debug_info" : "res_4_block4_conv_sep_conv2d",
      "pad_fill_mode" : 0,
      "pad_b" : 0,
      "pad_l" : 0,
      "top" : "res_4_block4_conv_sep_batchnorm",
      "blob_weights" : 175,
      "K" : 32,
      "blob_biases" : 173,
      "name" : "res_4_block4_conv_sep_conv2d",
      "has_batch_norm" : 0,
      "type" : "convolution",
      "n_groups" : 1,
      "pad_t" : 0,
      "has_biases" : 1,
      "C" : 64,
      "bottom" : "_plus7",
      "weights" : {

      },
      "Nx" : 1,
      "pad_mode" : 0,
      "pad_value" : 0,
      "Ny" : 1,
      "n_parallel" : 1
    },
    {
      "bottom" : "res_4_block4_conv_sep_batchnorm",
      "weights" : {
        "params_prelu" : 177
      },
      "mode" : 4,
      "debug_info" : "res_4_block4_conv_sep_relu",
      "top" : "res_4_block4_conv_sep_relu",
      "type" : "activation",
      "name" : "res_4_block4_conv_sep_relu"
    },
    {
      "pad_r" : 1,
      "fused_relu" : 0,
      "fused_tanh" : 0,
      "debug_info" : "res_4_block4_conv_dw_conv2d",
      "pad_fill_mode" : 0,
      "pad_b" : 1,
      "pad_l" : 1,
      "top" : "res_4_block4_conv_dw_batchnorm",
      "blob_weights" : 181,
      "K" : 64,
      "blob_biases" : 179,
      "name" : "res_4_block4_conv_dw_conv2d",
      "has_batch_norm" : 0,
      "type" : "convolution",
      "n_groups" : 64,
      "pad_t" : 1,
      "has_biases" : 1,
      "C" : 64,
      "bottom" : "res_4_block4_conv_sep_relu",
      "weights" : {

      },
      "Nx" : 3,
      "pad_mode" : 0,
      "pad_value" : 0,
      "Ny" : 3,
      "n_parallel" : 1
    },
    {
      "bottom" : "res_4_block4_conv_dw_batchnorm",
      "weights" : {
        "params_prelu" : 183
      },
      "mode" : 4,
      "debug_info" : "res_4_block4_conv_dw_relu",
      "top" : "res_4_block4_conv_dw_relu",
      "type" : "activation",
      "name" : "res_4_block4_conv_dw_relu"
    },
    {
      "pad_r" : 0,
      "fused_relu" : 0,
      "fused_tanh" : 0,
      "debug_info" : "res_4_block4_conv_proj_conv2d",
      "pad_fill_mode" : 0,
      "pad_b" : 0,
      "pad_l" : 0,
      "top" : "res_4_block4_conv_proj_batchnorm",
      "blob_weights" : 187,
      "K" : 64,
      "blob_biases" : 185,
      "name" : "res_4_block4_conv_proj_conv2d",
      "has_batch_norm" : 0,
      "type" : "convolution",
      "n_groups" : 1,
      "pad_t" : 0,
      "has_biases" : 1,
      "C" : 32,
      "bottom" : "res_4_block4_conv_dw_relu",
      "weights" : {

      },
      "Nx" : 1,
      "pad_mode" : 0,
      "pad_value" : 0,
      "Ny" : 1,
      "n_parallel" : 1
    },
    {
      "bottom" : "res_4_block4_conv_proj_batchnorm,_plus7",
      "alpha" : 1,
      "operation" : 0,
      "weights" : {

      },
      "fused_relu" : 0,
      "debug_info" : "_plus8",
      "top" : "_plus8",
      "type" : "elementwise",
      "name" : "_plus8",
      "beta" : 0
    },
    {
      "pad_r" : 0,
      "fused_relu" : 0,
      "fused_tanh" : 0,
      "debug_info" : "res_4_block5_conv_sep_conv2d",
      "pad_fill_mode" : 0,
      "pad_b" : 0,
      "pad_l" : 0,
      "top" : "res_4_block5_conv_sep_batchnorm",
      "blob_weights" : 191,
      "K" : 32,
      "blob_biases" : 189,
      "name" : "res_4_block5_conv_sep_conv2d",
      "has_batch_norm" : 0,
      "type" : "convolution",
      "n_groups" : 1,
      "pad_t" : 0,
      "has_biases" : 1,
      "C" : 64,
      "bottom" : "_plus8",
      "weights" : {

      },
      "Nx" : 1,
      "pad_mode" : 0,
      "pad_value" : 0,
      "Ny" : 1,
      "n_parallel" : 1
    },
    {
      "bottom" : "res_4_block5_conv_sep_batchnorm",
      "weights" : {
        "params_prelu" : 193
      },
      "mode" : 4,
      "debug_info" : "res_4_block5_conv_sep_relu",
      "top" : "res_4_block5_conv_sep_relu",
      "type" : "activation",
      "name" : "res_4_block5_conv_sep_relu"
    },
    {
      "pad_r" : 1,
      "fused_relu" : 0,
      "fused_tanh" : 0,
      "debug_info" : "res_4_block5_conv_dw_conv2d",
      "pad_fill_mode" : 0,
      "pad_b" : 1,
      "pad_l" : 1,
      "top" : "res_4_block5_conv_dw_batchnorm",
      "blob_weights" : 197,
      "K" : 64,
      "blob_biases" : 195,
      "name" : "res_4_block5_conv_dw_conv2d",
      "has_batch_norm" : 0,
      "type" : "convolution",
      "n_groups" : 64,
      "pad_t" : 1,
      "has_biases" : 1,
      "C" : 64,
      "bottom" : "res_4_block5_conv_sep_relu",
      "weights" : {

      },
      "Nx" : 3,
      "pad_mode" : 0,
      "pad_value" : 0,
      "Ny" : 3,
      "n_parallel" : 1
    },
    {
      "bottom" : "res_4_block5_conv_dw_batchnorm",
      "weights" : {
        "params_prelu" : 199
      },
      "mode" : 4,
      "debug_info" : "res_4_block5_conv_dw_relu",
      "top" : "res_4_block5_conv_dw_relu",
      "type" : "activation",
      "name" : "res_4_block5_conv_dw_relu"
    },
    {
      "pad_r" : 0,
      "fused_relu" : 0,
      "fused_tanh" : 0,
      "debug_info" : "res_4_block5_conv_proj_conv2d",
      "pad_fill_mode" : 0,
      "pad_b" : 0,
      "pad_l" : 0,
      "top" : "res_4_block5_conv_proj_batchnorm",
      "blob_weights" : 203,
      "K" : 64,
      "blob_biases" : 201,
      "name" : "res_4_block5_conv_proj_conv2d",
      "has_batch_norm" : 0,
      "type" : "convolution",
      "n_groups" : 1,
      "pad_t" : 0,
      "has_biases" : 1,
      "C" : 32,
      "bottom" : "res_4_block5_conv_dw_relu",
      "weights" : {

      },
      "Nx" : 1,
      "pad_mode" : 0,
      "pad_value" : 0,
      "Ny" : 1,
      "n_parallel" : 1
    },
    {
      "bottom" : "res_4_block5_conv_proj_batchnorm,_plus8",
      "alpha" : 1,
      "operation" : 0,
      "weights" : {

      },
      "fused_relu" : 0,
      "debug_info" : "_plus9",
      "top" : "_plus9",
      "type" : "elementwise",
      "name" : "_plus9",
      "beta" : 0
    },
    {
      "pad_r" : 0,
      "fused_relu" : 0,
      "fused_tanh" : 0,
      "debug_info" : "dconv_45_conv_sep_conv2d",
      "pad_fill_mode" : 0,
      "pad_b" : 0,
      "pad_l" : 0,
      "top" : "dconv_45_conv_sep_batchnorm",
      "blob_weights" : 207,
      "K" : 32,
      "blob_biases" : 205,
      "name" : "dconv_45_conv_sep_conv2d",
      "has_batch_norm" : 0,
      "type" : "convolution",
      "n_groups" : 1,
      "pad_t" : 0,
      "has_biases" : 1,
      "C" : 128,
      "bottom" : "_plus9",
      "weights" : {

      },
      "Nx" : 1,
      "pad_mode" : 0,
      "pad_value" : 0,
      "Ny" : 1,
      "n_parallel" : 1
    },
    {
      "bottom" : "dconv_45_conv_sep_batchnorm",
      "weights" : {
        "params_prelu" : 209
      },
      "mode" : 4,
      "debug_info" : "dconv_45_conv_sep_relu",
      "top" : "dconv_45_conv_sep_relu",
      "type" : "activation",
      "name" : "dconv_45_conv_sep_relu"
    },
    {
      "pad_r" : 1,
      "fused_relu" : 0,
      "fused_tanh" : 0,
      "debug_info" : "dconv_45_conv_dw_conv2d",
      "pad_fill_mode" : 0,
      "pad_b" : 1,
      "pad_l" : 1,
      "top" : "dconv_45_conv_dw_batchnorm",
      "blob_weights" : 213,
      "K" : 128,
      "blob_biases" : 211,
      "stride_x" : 2,
      "name" : "dconv_45_conv_dw_conv2d",
      "has_batch_norm" : 0,
      "type" : "convolution",
      "n_groups" : 128,
      "pad_t" : 1,
      "stride_y" : 2,
      "has_biases" : 1,
      "C" : 128,
      "bottom" : "dconv_45_conv_sep_relu",
      "weights" : {

      },
      "Nx" : 3,
      "pad_mode" : 0,
      "pad_value" : 0,
      "Ny" : 3,
      "n_parallel" : 1
    },
    {
      "bottom" : "dconv_45_conv_dw_batchnorm",
      "weights" : {
        "params_prelu" : 215
      },
      "mode" : 4,
      "debug_info" : "dconv_45_conv_dw_relu",
      "top" : "dconv_45_conv_dw_relu",
      "type" : "activation",
      "name" : "dconv_45_conv_dw_relu"
    },
    {
      "pad_r" : 0,
      "fused_relu" : 0,
      "fused_tanh" : 0,
      "debug_info" : "dconv_45_conv_proj_conv2d",
      "pad_fill_mode" : 0,
      "pad_b" : 0,
      "pad_l" : 0,
      "top" : "dconv_45_conv_proj_batchnorm",
      "blob_weights" : 219,
      "K" : 128,
      "blob_biases" : 217,
      "name" : "dconv_45_conv_proj_conv2d",
      "has_batch_norm" : 0,
      "type" : "convolution",
      "n_groups" : 1,
      "pad_t" : 0,
      "has_biases" : 1,
      "C" : 32,
      "bottom" : "dconv_45_conv_dw_relu",
      "weights" : {

      },
      "Nx" : 1,
      "pad_mode" : 0,
      "pad_value" : 0,
      "Ny" : 1,
      "n_parallel" : 1
    },
    {
      "pad_r" : 0,
      "fused_relu" : 0,
      "fused_tanh" : 0,
      "debug_info" : "res_5_block0_conv_sep_conv2d",
      "pad_fill_mode" : 0,
      "pad_b" : 0,
      "pad_l" : 0,
      "top" : "res_5_block0_conv_sep_batchnorm",
      "blob_weights" : 223,
      "K" : 32,
      "blob_biases" : 221,
      "name" : "res_5_block0_conv_sep_conv2d",
      "has_batch_norm" : 0,
      "type" : "convolution",
      "n_groups" : 1,
      "pad_t" : 0,
      "has_biases" : 1,
      "C" : 64,
      "bottom" : "dconv_45_conv_proj_batchnorm",
      "weights" : {

      },
      "Nx" : 1,
      "pad_mode" : 0,
      "pad_value" : 0,
      "Ny" : 1,
      "n_parallel" : 1
    },
    {
      "bottom" : "res_5_block0_conv_sep_batchnorm",
      "weights" : {
        "params_prelu" : 225
      },
      "mode" : 4,
      "debug_info" : "res_5_block0_conv_sep_relu",
      "top" : "res_5_block0_conv_sep_relu",
      "type" : "activation",
      "name" : "res_5_block0_conv_sep_relu"
    },
    {
      "pad_r" : 1,
      "fused_relu" : 0,
      "fused_tanh" : 0,
      "debug_info" : "res_5_block0_conv_dw_conv2d",
      "pad_fill_mode" : 0,
      "pad_b" : 1,
      "pad_l" : 1,
      "top" : "res_5_block0_conv_dw_batchnorm",
      "blob_weights" : 229,
      "K" : 64,
      "blob_biases" : 227,
      "name" : "res_5_block0_conv_dw_conv2d",
      "has_batch_norm" : 0,
      "type" : "convolution",
      "n_groups" : 64,
      "pad_t" : 1,
      "has_biases" : 1,
      "C" : 64,
      "bottom" : "res_5_block0_conv_sep_relu",
      "weights" : {

      },
      "Nx" : 3,
      "pad_mode" : 0,
      "pad_value" : 0,
      "Ny" : 3,
      "n_parallel" : 1
    },
    {
      "bottom" : "res_5_block0_conv_dw_batchnorm",
      "weights" : {
        "params_prelu" : 231
      },
      "mode" : 4,
      "debug_info" : "res_5_block0_conv_dw_relu",
      "top" : "res_5_block0_conv_dw_relu",
      "type" : "activation",
      "name" : "res_5_block0_conv_dw_relu"
    },
    {
      "pad_r" : 0,
      "fused_relu" : 0,
      "fused_tanh" : 0,
      "debug_info" : "res_5_block0_conv_proj_conv2d",
      "pad_fill_mode" : 0,
      "pad_b" : 0,
      "pad_l" : 0,
      "top" : "res_5_block0_conv_proj_batchnorm",
      "blob_weights" : 235,
      "K" : 64,
      "blob_biases" : 233,
      "name" : "res_5_block0_conv_proj_conv2d",
      "has_batch_norm" : 0,
      "type" : "convolution",
      "n_groups" : 1,
      "pad_t" : 0,
      "has_biases" : 1,
      "C" : 32,
      "bottom" : "res_5_block0_conv_dw_relu",
      "weights" : {

      },
      "Nx" : 1,
      "pad_mode" : 0,
      "pad_value" : 0,
      "Ny" : 1,
      "n_parallel" : 1
    },
    {
      "bottom" : "res_5_block0_conv_proj_batchnorm,dconv_45_conv_proj_batchnorm",
      "alpha" : 1,
      "operation" : 0,
      "weights" : {

      },
      "fused_relu" : 0,
      "debug_info" : "_plus10",
      "top" : "_plus10",
      "type" : "elementwise",
      "name" : "_plus10",
      "beta" : 0
    },
    {
      "pad_r" : 0,
      "fused_relu" : 0,
      "fused_tanh" : 0,
      "debug_info" : "res_5_block1_conv_sep_conv2d",
      "pad_fill_mode" : 0,
      "pad_b" : 0,
      "pad_l" : 0,
      "top" : "res_5_block1_conv_sep_batchnorm",
      "blob_weights" : 239,
      "K" : 32,
      "blob_biases" : 237,
      "name" : "res_5_block1_conv_sep_conv2d",
      "has_batch_norm" : 0,
      "type" : "convolution",
      "n_groups" : 1,
      "pad_t" : 0,
      "has_biases" : 1,
      "C" : 64,
      "bottom" : "_plus10",
      "weights" : {

      },
      "Nx" : 1,
      "pad_mode" : 0,
      "pad_value" : 0,
      "Ny" : 1,
      "n_parallel" : 1
    },
    {
      "bottom" : "res_5_block1_conv_sep_batchnorm",
      "weights" : {
        "params_prelu" : 241
      },
      "mode" : 4,
      "debug_info" : "res_5_block1_conv_sep_relu",
      "top" : "res_5_block1_conv_sep_relu",
      "type" : "activation",
      "name" : "res_5_block1_conv_sep_relu"
    },
    {
      "pad_r" : 1,
      "fused_relu" : 0,
      "fused_tanh" : 0,
      "debug_info" : "res_5_block1_conv_dw_conv2d",
      "pad_fill_mode" : 0,
      "pad_b" : 1,
      "pad_l" : 1,
      "top" : "res_5_block1_conv_dw_batchnorm",
      "blob_weights" : 245,
      "K" : 64,
      "blob_biases" : 243,
      "name" : "res_5_block1_conv_dw_conv2d",
      "has_batch_norm" : 0,
      "type" : "convolution",
      "n_groups" : 64,
      "pad_t" : 1,
      "has_biases" : 1,
      "C" : 64,
      "bottom" : "res_5_block1_conv_sep_relu",
      "weights" : {

      },
      "Nx" : 3,
      "pad_mode" : 0,
      "pad_value" : 0,
      "Ny" : 3,
      "n_parallel" : 1
    },
    {
      "bottom" : "res_5_block1_conv_dw_batchnorm",
      "weights" : {
        "params_prelu" : 247
      },
      "mode" : 4,
      "debug_info" : "res_5_block1_conv_dw_relu",
      "top" : "res_5_block1_conv_dw_relu",
      "type" : "activation",
      "name" : "res_5_block1_conv_dw_relu"
    },
    {
      "pad_r" : 0,
      "fused_relu" : 0,
      "fused_tanh" : 0,
      "debug_info" : "res_5_block1_conv_proj_conv2d",
      "pad_fill_mode" : 0,
      "pad_b" : 0,
      "pad_l" : 0,
      "top" : "res_5_block1_conv_proj_batchnorm",
      "blob_weights" : 251,
      "K" : 64,
      "blob_biases" : 249,
      "name" : "res_5_block1_conv_proj_conv2d",
      "has_batch_norm" : 0,
      "type" : "convolution",
      "n_groups" : 1,
      "pad_t" : 0,
      "has_biases" : 1,
      "C" : 32,
      "bottom" : "res_5_block1_conv_dw_relu",
      "weights" : {

      },
      "Nx" : 1,
      "pad_mode" : 0,
      "pad_value" : 0,
      "Ny" : 1,
      "n_parallel" : 1
    },
    {
      "bottom" : "res_5_block1_conv_proj_batchnorm,_plus10",
      "alpha" : 1,
      "operation" : 0,
      "weights" : {

      },
      "fused_relu" : 0,
      "debug_info" : "_plus11",
      "top" : "_plus11",
      "type" : "elementwise",
      "name" : "_plus11",
      "beta" : 0
    },
    {
      "pad_r" : 0,
      "fused_relu" : 0,
      "fused_tanh" : 0,
      "debug_info" : "conv_6sep_conv2d",
      "pad_fill_mode" : 0,
      "pad_b" : 0,
      "pad_l" : 0,
      "top" : "conv_6sep_batchnorm",
      "blob_weights" : 255,
      "K" : 32,
      "blob_biases" : 253,
      "name" : "conv_6sep_conv2d",
      "has_batch_norm" : 0,
      "type" : "convolution",
      "n_groups" : 1,
      "pad_t" : 0,
      "has_biases" : 1,
      "C" : 128,
      "bottom" : "_plus11",
      "weights" : {

      },
      "Nx" : 1,
      "pad_mode" : 0,
      "pad_value" : 0,
      "Ny" : 1,
      "n_parallel" : 1
    },
    {
      "bottom" : "conv_6sep_batchnorm",
      "weights" : {
        "params_prelu" : 257
      },
      "mode" : 4,
      "debug_info" : "conv_6sep_relu",
      "top" : "conv_6sep_relu",
      "type" : "activation",
      "name" : "conv_6sep_relu"
    },
    {
      "pad_r" : 0,
      "fused_relu" : 0,
      "fused_tanh" : 0,
      "debug_info" : "conv_f1_conv2d",
      "pad_fill_mode" : 0,
      "pad_b" : 0,
      "pad_l" : 0,
      "top" : "conv_f1_batchnorm",
      "blob_weights" : 261,
      "K" : 128,
      "blob_biases" : 259,
      "name" : "conv_f1_conv2d",
      "has_batch_norm" : 0,
      "type" : "convolution",
      "n_groups" : 1,
      "pad_t" : 0,
      "has_biases" : 1,
      "C" : 32,
      "bottom" : "conv_6sep_relu",
      "weights" : {

      },
      "Nx" : 1,
      "pad_mode" : 0,
      "pad_value" : 0,
      "Ny" : 1,
      "n_parallel" : 1
    },
    {
      "bottom" : "conv_f1_batchnorm",
      "weights" : {
        "params_prelu" : 263
      },
      "mode" : 4,
      "debug_info" : "conv_f1_relu",
      "top" : "conv_f1_relu",
      "type" : "activation",
      "name" : "conv_f1_relu"
    },
    {
      "pad_r" : 1,
      "fused_relu" : 0,
      "fused_tanh" : 0,
      "debug_info" : "conv_f2_conv2d",
      "pad_fill_mode" : 0,
      "pad_b" : 1,
      "pad_l" : 1,
      "top" : "conv_f2_batchnorm",
      "blob_weights" : 267,
      "K" : 32,
      "blob_biases" : 265,
      "name" : "conv_f2_conv2d",
      "has_batch_norm" : 0,
      "type" : "convolution",
      "n_groups" : 32,
      "pad_t" : 1,
      "has_biases" : 1,
      "C" : 32,
      "bottom" : "conv_f1_relu",
      "weights" : {

      },
      "Nx" : 3,
      "pad_mode" : 0,
      "pad_value" : 0,
      "Ny" : 3,
      "n_parallel" : 1
    },
    {
      "bottom" : "conv_f2_batchnorm",
      "weights" : {
        "params_prelu" : 269
      },
      "mode" : 4,
      "debug_info" : "conv_f2_relu",
      "top" : "conv_f2_relu",
      "type" : "activation",
      "name" : "conv_f2_relu"
    },
    {
      "pad_r" : 0,
      "fused_relu" : 0,
      "fused_tanh" : 0,
      "debug_info" : "conv_f3_conv2d",
      "pad_fill_mode" : 0,
      "pad_b" : 0,
      "pad_l" : 0,
      "top" : "conv_f3_batchnorm",
      "blob_weights" : 273,
      "K" : 32,
      "blob_biases" : 271,
      "name" : "conv_f3_conv2d",
      "has_batch_norm" : 0,
      "type" : "convolution",
      "n_groups" : 1,
      "pad_t" : 0,
      "has_biases" : 1,
      "C" : 128,
      "bottom" : "conv_f2_relu",
      "weights" : {

      },
      "Nx" : 1,
      "pad_mode" : 0,
      "pad_value" : 0,
      "Ny" : 1,
      "n_parallel" : 1
    },
    {
      "bottom" : "conv_f3_batchnorm",
      "weights" : {
        "params_prelu" : 275
      },
      "mode" : 4,
      "debug_info" : "conv_f3_relu",
      "top" : "conv_f3_relu",
      "type" : "activation",
      "name" : "conv_f3_relu"
    },
    {
      "pad_r" : 0,
      "fused_relu" : 0,
      "fused_tanh" : 0,
      "debug_info" : "conv_6dw7_7_conv2d",
      "pad_fill_mode" : 0,
      "pad_b" : 0,
      "pad_l" : 0,
      "top" : "conv_6dw7_7_batchnorm",
      "blob_weights" : 279,
      "K" : 128,
      "blob_biases" : 277,
      "name" : "conv_6dw7_7_conv2d",
      "has_batch_norm" : 0,
      "type" : "convolution",
      "n_groups" : 128,
      "pad_t" : 0,
      "has_biases" : 1,
      "C" : 128,
      "bottom" : "conv_f3_relu",
      "weights" : {

      },
      "Nx" : 7,
      "pad_mode" : 0,
      "pad_value" : 0,
      "Ny" : 7,
      "n_parallel" : 1
    },
    {
      "nB" : 128,
      "top" : "pre_fc1",
      "has_biases" : 1,
      "weights" : {

      },
      "nC" : 128,
      "blob_weights" : 283,
      "type" : "inner_product",
      "has_relu" : 0,
      "bottom" : "conv_6dw7_7_batchnorm",
      "blob_biases" : 281,
      "has_tanh" : 0,
      "debug_info" : "pre_fc1",
      "name" : "pre_fc1",
      "has_prelu" : 0
    },
    {
      "name" : "fc1",
      "bottom" : "pre_fc1",
      "weights" : {

      },
      "debug_info" : "fc1",
      "top" : "fc1",
      "C" : 128,
      "blob_batchnorm_params" : 285,
      "type" : "batchnorm"
    },
    {
      "has_prelu" : 0,
      "top" : "fc2_output",
      "has_biases" : 1,
      "weights" : {

      },
      "nC" : 205,
      "blob_weights" : 289,
      "type" : "inner_product",
      "has_relu" : 0,
      "attributes" : {
        "is_output" : 1
      },
      "bottom" : "fc1",
      "debug_info" : "fc2_output",
      "has_tanh" : 0,
      "blob_biases" : 287,
      "name" : "fc2_output",
      "nB" : 128
    }
  ]
}